careproChatBot/app/data.pth (torch, 21866 bytes, 6 tensors)

l1.weight f4 [8, 365]
0	0x3edb5afc	0.42842853
1	0x3fbcbbd2	1.4744818
2	0x3fd6533b	1.674415
3	0x3efd0500	0.49417877
4	0x3fe9e50a	1.8273022
5	0x3feecd90	1.8656483
6	0xbf855e6a	-1.0419438
7	0xbfb1d633	-1.3893493
8	0x3ec25a2e	0.37959427
9	0xbf0e9369	-0.5569368
10	0x3f2a880e	0.6661385
11	0xbf3d1a6f	-0.7386846
12	0xbf0ccfed	-0.5500477
13	0x3fe2178d	1.7663437
14	0x3f834709	1.0256053
15	0x3f89b962	1.0759699
16	0x400c8030	2.195324
17	0xbf231d2f	-0.63716406
18	0xbf91dfc3	-1.1396412
19	0xbee567c4	-0.4480573
20	0xbe9547d5	-0.29156366
21	0x3eef58a3	0.46747312
22	0xbf0e3422	-0.555483
23	0x3f9801bf	1.1875533
24	0x3ff62ee5	1.9233061
25	0x3fad163b	1.3522409
26	0xbd2e2641	-0.04251695
27	0x3f5f824c	0.8730819
28	0x3ef82d91	0.48472264
29	0x401bbfc9	2.4335806
30	0xbe694d4d	-0.22783394
31	0xbc624bff	-0.013812064
32	0xbfb41441	-1.4068681
33	0x3fe3eb9f	1.7806281
34	0x3e15a2b2	0.14612845
35	0xbd9a09bb	-0.07521387
36	0x40286bcf	2.63158
37	0xbeb79fed	-0.358642
38	0xbebf0abf	-0.37312886
39	0x3f6dd7e6	0.9290756
40	0x3ed9c700	0.42534637
41	0x3f0fbdd7	0.5614905
42	0xbe843989	-0.25825146
43	0xbf86bc72	-1.0526259
44	0xbecafc5c	-0.3964566
45	0xbef24ddc	-0.47325027
46	0xbeca83d2	-0.39553696
47	0xbf0c30a8	-0.54761744
48	0x40094916	2.1450858
49	0x3f26f33c	0.65214896
50	0x3fdef873	1.7419571
51	0x400d6a3e	2.2096095
52	0x3cd4e8a2	0.025989834
53	0x3f375130	0.7160826
54	0xbd36e184	-0.044648662
55	0xbe81798e	-0.2528805
56	0xbe1c7f3d	-0.15282913
57	0xbf0c39ce	-0.547757
58	0xbf0387d5	-0.5137914
59	0xbf13c254	-0.57718396
60	0x3ed5e989	0.41779736
61	0xbec9fdbd	-0.394514
62	0x3f5e928b	0.86942357
63	0x3f65140d	0.8948372
64	0xbf08c626	-0.5342735
65	0xbd39c960	-0.04535806
66	0x3f2a37b7	0.66491264
67	0x3f30e72b	0.69102734
68	0x3f14a9bc	0.58071494
69	0xbf393112	-0.723405
70	0x3fb72c3b	1.4310373
71	0x401c8f3a	2.4462419
72	0x3da297d1	0.07939113
73	0xbf6533c9	-0.8953214
74	0xbf565967	-0.8373017
75	0x3feca38f	1.8487414
76	0xbfeb5f13	-1.8388389
77	0xbf24ac12	-0.6432506
78	0xbeadd9a2	-0.33955103
79	0x3f1cf140	0.6130562
80	0x3f884d92	1.0648673
81	0x3f338ad7	0.7013373
82	0xbec1094a	-0.377024
83	0x3fac9d78	1.3485556
84	0xbeb73423	-0.35781965
85	0xbfbb361b	-1.4625887
86	0xbeca2b14	-0.3948599
87	0x3e1158d9	0.14194049
88	0x3fbd58c2	1.4792712
89	0x3fa3e8b7	1.2805394
90	0x401d3d6a	2.4568734
91	0x40214d51	2.520344
92	0xbe1109eb	-0.1416394
93	0x3f85579c	1.0417361
94	0x3f4c79f3	0.7987358
95	0x3f142ac0	0.5787773
96	0x3f63d6f3	0.8899986
97	0xc01fee0e	-2.4989047
98	0x4029071a	2.6410584
99	0x3fff0370	1.9922924
100	0xbf5b696d	-0.8570774
101	0xbf1a339f	-0.6023502
102	0x3f579102	0.8420564
103	0x3ffb2d08	1.9623117
104	0x3f4ead2d	0.80732995
105	0x3f632e2a	0.88742316
106	0xbfe5f383	-1.7964939
107	0xbfb26117	-1.393588
108	0x3fab9f4c	1.3407989
109	0xbfb1dba3	-1.3895153
110	0x3ec3705e	0.38171667
111	0xbf94cf20	-1.162571
112	0x3ee5b4c4	0.44864476
113	0xbf1603b2	-0.5859939
114	0x3f9e3968	1.2361269
115	0x3f564fc7	0.8371548
116	0x3f39585e	0.7240046
117	0x3f0176ad	0.5057171
118	0xbf60fbf0	-0.87884426
119	0xbeeb8c7c	-0.4600562
120	0x3f03ae9c	0.5143831
121	0x3d8e577f	0.06950282
122	0xbe7552a0	-0.239573
123	0xbed01906	-0.4064409
124	0xbea411ed	-0.32044926
125	0x3f9963e6	1.1983612
126	0xbe423d86	-0.18968782
127	0xbe4af740	-0.19820881
128	0x3f2098e2	0.6273328
129	0x3f9edd2e	1.2411249
130	0xbeeb7044	-0.4598409
131	0x4026a033	2.6035278
132	0x3edf1efa	0.4357832
133	0xbf2ae4fd	-0.6675566
134	0xbf279f0a	-0.6547705
135	0xbf273f3a	-0.6533085
136	0xbec8e9cd	-0.39240876
137	0x3e909b43	0.28243455
138	0xbf57183b	-0.8402135
139	0xbdd373ec	-0.10324845
140	0x3f2dbe34	0.6786835
141	0xbe89eb39	-0.26937273
142	0x3e818c93	0.25302562
143	0x3ed59b23	0.41719922
144	0x3f4d2fcf	0.80151075
145	0xbf6aa04d	-0.9165085
146	0x401b6fe6	2.4287047
147	0xbf33e2a9	-0.7026773
148	0x4005a695	2.0882924
149	0xbf1b6ef4	-0.60716176
150	0x3f8bb047	1.091317
151	0x4044ac85	3.0730298
152	0x3fe5ee65	1.7963377
153	0x3e2c991b	0.1685528
154	0x401bc073	2.4336212
155	0x3e75141a	0.2393345
156	0x3f10277b	0.5631024
157	0x3e6cce09	0.23125471
158	0xbfcca141	-1.5986711
159	0xbe65ffea	-0.22460905
160	0x3e20d985	0.15707977
161	0x3e282973	0.16422062
162	0xbd3fa8ba	-0.04679177
163	0xbf4fe096	-0.81202066
164	0x3fa811ca	1.3130429
165	0x3f2c135d	0.67217046
166	0x3fa1e526	1.2648056
167	0x3f98dd3c	1.1942515
168	0x3f579dfb	0.84225434
169	0x3fcfc6af	1.6232508
170	0xbf1c9283	-0.6116106
171	0x401de403	2.4670417
172	0xbee06a3e	-0.43831056
173	0x3fb5c78c	1.4201522
174	0xbdbf1af1	-0.093313105
175	0x3f656a07	0.8961491
176	0x3d8db960	0.06920123
177	0xbe670afa	-0.22562781
178	0x3fc903e4	1.5704312
179	0x3fd0d706	1.631562
180	0x3f7fcc1f	0.9992084
181	0xbfc195c9	-1.5123836
182	0xbf776c4a	-0.9664961
183	0xbf3cf6de	-0.7381419
184	0x3ed0a4bb	0.4075068
185	0x3f20b779	0.6277996
186	0x3f94ca89	1.1624309
187	0x3eedcd54	0.46445715
188	0xbf8b36b2	-1.0876067
189	0x400cb315	2.1984303
190	0x3f426c49	0.7594648
191	0x3ffbce06	1.9672248
192	0x3ffbde65	1.9677244
193	0xbe8a3c38	-0.26999068
194	0x3ffb48c2	1.9631579
195	0x3f04bacf	0.5184755
196	0x3e8faf30	0.28063345
197	0x40296bd4	2.6472063
198	0xbe6d1648	-0.23153031
199	0x3ebe8119	0.3720787
200	0x3d107228	0.035265118
201	0x402887df	2.633293
202	0xbeed00ce	-0.46289676
203	0x4007769c	2.1166143
204	0x3f34fd80	0.7069931
205	0x3fab78a4	1.3396192
206	0xbebc27b2	-0.36749035
207	0x3f2a9677	0.6663584
208	0xbe35fa99	-0.17771377
209	0xbec9459b	-0.39310917
210	0x3f291376	0.6604532
211	0x3dd5d818	0.10441607
212	0x4008204f	2.126972
213	0x3fb771ff	1.4331664
214	0x3eb41fde	0.35180563
215	0xbe0fcad3	-0.14042215
216	0x3f9ef579	1.2418662
217	0xbe2a067e	-0.16604039
218	0xbe7aa5f1	-0.24477364
219	0x3f4dc185	0.8037341
220	0xbecb593e	-0.39716524
221	0xc008a3a3	-2.1349876
222	0x3c9902f8	0.018678173
223	0xbd5d0157	-0.053956356
224	0x3e90c272	0.2827335
225	0xbefe0b3a	-0.4961794
226	0xbf2fd55f	-0.68684953
227	0x3f7e5cdd	0.9936045
228	0xbf55ca77	-0.8351206
229	0xbe2df745	-0.16988857
230	0xbea779b3	-0.32710037
231	0x3d9ee351	0.07758201
232	0xbe341667	-0.17586671
233	0x3f1da3e6	0.61578214
234	0xbe8e2054	-0.2775904
235	0x3f3c63a9	0.7358957
236	0x3e84a058	0.25903583
237	0xbf0f8204	-0.56057763
238	0x3eddc99b	0.43317875
239	0x3f45618c	0.7710197
240	0xbef003fa	-0.46878034
241	0xbf543f5e	-0.8290919
242	0x3fe46201	1.7842408
243	0xbe3e3c00	-0.18577576
244	0x3f2b75bf	0.6697654
245	0xbe5751e0	-0.21027327
246	0xbe1d5e1c	-0.15367931
247	0x3fa76691	1.3078176
248	0xbf69a157	-0.9126181
249	0x3fbea202	1.4893191
250	0x3d6d7479	0.057972405
251	0xbe8c7313	-0.27431545
252	0x3fa1245c	1.2589221
253	0xbe83b0c3	-0.25720796
254	0x406f8046	3.7422042
255	0x3fb8f5a4	1.4449964

l1.bias f4 [8]
0	0x3f9384d2	1.1524909
1	0x3f311099	0.6916595
2	0x3f8a6194	1.0811028
3	0x3f186735	0.5953248
4	0x3f08312e	0.5320004
5	0x3f8cb3c5	1.0992361
6	0x3f5eb172	0.8698951
7	0x3f2f3192	0.68435013

l2.weight f4 [8, 8]
0	0xbf28d6ac	-0.65952563
1	0x4002fba7	2.0466096
2	0x3e99c572	0.3003345
3	0xbf42f1b1	-0.7615004
4	0x3fd5a752	1.6691687
5	0x3fc85437	1.56507
6	0x3ecda283	0.4016305
7	0xbf97cb9e	-1.1859014
8	0x3f923f0b	1.1425489
9	0xbea2c5a5	-0.31791416
10	0x4009cd97	2.1531732
11	0xbfbf823c	-1.4961619
12	0xbffc6aca	-1.972009
13	0x3febb190	1.8413563
14	0x3f871f46	1.0556419
15	0xbf286e88	-0.6579366
16	0x3f0ffb9d	0.56243306
17	0x40169c98	2.3533077
18	0x3fca945c	1.5826526
19	0xbf9ae545	-1.2101218
20	0x3f0038a2	0.50086415
21	0xbfa7f510	-1.3121662
22	0xbe82d69d	-0.25554362
23	0x3fc2335d	1.5171925
24	0x3d83aec8	0.06429821
25	0xbf28e380	-0.6597214
26	0xbe2082b6	-0.15674862
27	0x3ff66fbf	1.9252852
28	0x3fa31552	1.2740881
29	0xbebe708a	-0.37195235
30	0x400ab989	2.1675742
31	0x405a29fd	3.4088128
32	0x4049c877	3.1528604
33	0xbf241472	-0.640937
34	0xbfb4857e	-1.4103239
35	0x3f7401f7	0.953155
36	0x3e6b998d	0.23007794
37	0x400a4ccb	2.160937
38	0x3f95b337	1.1695317
39	0xbcd94310	-0.026521236
40	0xbfbc80b7	-1.4726781
41	0x3f9e7811	1.2380391
42	0x3f81f843	1.0153888
43	0xbfd65e4b	-1.6747526
44	0x3fcc20f9	1.5947562
45	0x3f64f453	0.8943531
46	0xbdd04650	-0.10169661
47	0xbdd912aa	-0.10599263
48	0xbf54bee1	-0.8310376
49	0xbf22ca75	-0.63590175
50	0x3fa8d6c7	1.3190545
51	0x3eaf5abf	0.3424892
52	0x3fd58b9d	1.6683232
53	0xbf2c2f2c	-0.6725948
54	0x3fcb0a75	1.5862566
55	0xbf06c204	-0.52639794
56	0xbfb8e8f5	-1.4446093
57	0xbe67ac02	-0.2262421
58	0x3fb04208	1.3770151
59	0x402af796	2.6713614
60	0x3e5393e4	0.20661885
61	0x3ef6233d	0.4807376
62	0x3fd7fd37	1.687415
63	0xbf026517	-0.509355

l2.bias f4 [8]
0	0x3d8290b3	0.063752554
1	0x3fac28fb	1.3450006
2	0x3f1ca5a0	0.61190224
3	0xbda425c7	-0.08015018
4	0x3f8b4666	1.0880859
5	0x3f106f25	0.56419593
6	0xbe18c970	-0.14920592
7	0x3e160fe5	0.14654501

l3.weight f4 [43, 8]
0	0x3f18fcdc	0.5976083
1	0x3f5d3d6a	0.86421835
2	0xc100681e	-8.025419
3	0xbcf1a36d	-0.029496873
4	0x3ecc9a4e	0.39961475
5	0xc0ce60c7	-6.4493136
6	0xbf51ea1c	-0.8199785
7	0x3f2bd786	0.6712574
8	0xc09ec186	-4.9611235
9	0x3ea4bbba	0.32174474
10	0xc0a3435b	-5.101972
11	0x3f489f70	0.7836828
12	0x3f842ecc	1.0326781
13	0xbfeb5a74	-1.8386979
14	0xc0a20aae	-5.0638037
15	0xc0088951	-2.1333811
16	0x3ed47193	0.414929
17	0xbe558d1d	-0.20854612
18	0x3e06234a	0.13099399
19	0xbf87100e	-1.0551775
20	0xbf6671bb	-0.9001729
21	0x3e9235d1	0.28556684
22	0x3e7b76f5	0.24557097
23	0x3d8e49d7	0.069476776
24	0x3eccc1b5	0.39991537
25	0xc030d406	-2.762941
26	0x3f045dda	0.51705706
27	0xc0124c37	-2.2859018
28	0xc085eb8b	-4.185003
29	0x3f074ba5	0.528498
30	0x3fadfaeb	1.3592199
31	0x3e15a162	0.14612344
32	0xbfad4668	-1.3537111
33	0x3fb7bbe5	1.4354216
34	0xbfb07cb2	-1.3788054
35	0xc0b58fc1	-5.673798
36	0x3f90e7bd	1.1320721
37	0xc021c34d	-2.5275452
38	0xc02a622c	-2.662242
39	0xc04fd3e6	-3.2473083
40	0x3f08379b	0.5320985
41	0xbf335dc1	-0.7006493
42	0xbdf1c834	-0.11805764
43	0xbfad6d7b	-1.3549036
44	0xbdd9d82f	-0.10636937
45	0x3ebac544	0.36478627
46	0xbe737d6f	-0.23778318
47	0xbf2e132b	-0.67998
48	0xbf9363ea	-1.1514866
49	0xc069e471	-3.654568
50	0x3fb1355a	1.3844407
51	0x3f81aee3	1.0131496
52	0xc0416a58	-3.0221157
53	0xbe81cf34	-0.25353396
54	0xc09198e8	-4.5499153
55	0xc05fe035	-3.4980595
56	0xc006a73c	-2.1039572
57	0xc02a8661	-2.6644518
58	0x3df02205	0.11725239
59	0x3f30f2c6	0.6912044
60	0xc0d2a43a	-6.582547
61	0xbedbd662	-0.42937
62	0x3f604730	0.87608624
63	0xbf76e535	-0.9644349
64	0x3f749240	0.9553566
65	0xc003bd0a	-2.058413
66	0xc02e4758	-2.7231045
67	0x3f0bf552	0.54671204
68	0x3db6635c	0.0890567
69	0xbfaed8d4	-1.3659921
70	0xc0199aa8	-2.4000645
71	0x3f0d95a5	0.55306464
72	0x3f9dab8f	1.231798
73	0x3f694c36	0.91131914
74	0xc0913cd0	-4.5386734
75	0xc0074f16	-2.114202
76	0x3f663290	0.899209
77	0xbd20576a	-0.039145865
78	0xc01a9416	-2.4152884
79	0xc05bc513	-3.4339035
80	0xbfc22f8e	-1.5170763
81	0xbeeeb834	-0.4662491
82	0xbeea9e22	-0.4582377
83	0x3f0b88b2	0.54505455
84	0x3eb5848e	0.35452694
85	0xc05a7be8	-3.4138126
86	0xc0835f32	-4.1053705
87	0xbdf6f08a	-0.12057598
88	0xbfcbd463	-1.592419
89	0x3eab14bd	0.3341426
90	0x3f816f06	1.0112007
91	0x3d935f80	0.071959496
92	0xbf81945a	-1.0123398
93	0xbfac9fea	-1.3486302
94	0xc0d99dc8	-6.8005104
95	0xc0c1ba5d	-6.0539994
96	0xbe4c9a48	-0.19980729
97	0xbe17112e	-0.14752647
98	0x3e80a25f	0.2512388
99	0xbe22b892	-0.1589072
100	0xbe5ee7c8	-0.21768105
101	0xbf8085f5	-1.004088
102	0xbebef393	-0.37295207
103	0xbceb216e	-0.028702464
104	0xbe42e224	-0.19031578
105	0xbff41e73	-1.9071792
106	0x3e39374a	0.18087497
107	0x3ea093da	0.31362802
108	0xbf539bdc	-0.826597
109	0x3f278b42	0.65446866
110	0xbf120045	-0.5703166
111	0xbe252da8	-0.16130698
112	0xbf8da843	-1.1066974
113	0x3fb05258	1.3775129
114	0xc049fe12	-3.1561322
115	0xbf23138f	-0.6370172
116	0x3e9479cc	0.28999174
117	0xc002d8a6	-2.0444732
118	0x3f752864	0.95764756
119	0xbf451b20	-0.76994514
120	0xbf86f0df	-1.0542258
121	0x3e839513	0.25699672
122	0xc04292da	-3.040213
123	0xbf2ead18	-0.6823287
124	0xbf8ed256	-1.115794
125	0xc0366a18	-2.8502254
126	0x3f964f70	1.1742992
127	0x3fd06687	1.6281289
128	0x3d8b3f30	0.067991614
129	0x3e20e85a	0.15713635
130	0xbfc4ff9d	-1.5390507
131	0xbdf6ee1f	-0.12057137
132	0xbf62a984	-0.8853991
133	0x3ed0242a	0.4065259
134	0x3eb71453	0.35757694
135	0x3e1f3209	0.1554643
136	0xbe3fd2e3	-0.1873279
137	0x3fd625d0	1.673029
138	0xc0af7530	-5.483055
139	0xbf97c37e	-1.1856534
140	0x3f1b6609	0.6070257
141	0xc01ca328	-2.4474583
142	0xc0f0e7a8	-7.5282784
143	0x4012b2c7	2.2921617
144	0xc0470ec1	-3.1102755
145	0x3f1a6f3b	0.60325974
146	0xbf9d76e1	-1.2301904
147	0x3e9780d6	0.29590482
148	0xbf750233	-0.9570648
149	0xc0fb2050	-7.8476944
150	0x3e818b7e	0.25301737
151	0x3f492cad	0.78583795
152	0xc0b782a3	-5.734697
153	0x3e3bdab7	0.18345152
154	0x3f8aea26	1.0852706
155	0x3f0df026	0.5544456
156	0xbfe345fa	-1.775573
157	0xc09ed4a7	-4.9634585
158	0xbe90fd83	-0.28318414
159	0xbfb90fe8	-1.4457979
160	0xbcbba9fe	-0.022908207
161	0x3ee40cd5	0.4454104
162	0x3f0d6f81	0.55248266
163	0xbf721224	-0.9455893
164	0xbf0d2d9d	-0.55147725
165	0xbeef347e	-0.46719736
166	0xbf39b98b	-0.7254874
167	0xbf19780e	-0.59948814
168	0xc0086225	-2.1309903
169	0x3f434e76	0.76291597
170	0x3fc8cba7	1.568715
171	0xc00fd6b0	-2.2474785
172	0xbdea094d	-0.11427555
173	0xc0e94a23	-7.2903
174	0xc0933127	-4.59975
175	0xc0b01b5f	-5.503341
176	0x3f6a6fb2	0.91576684
177	0xc0819462	-4.049363
178	0x3f89cfe6	1.076657
179	0xbfd1b8da	-1.6384537
180	0xc0238921	-2.5552447
181	0x3f8199cb	1.0125059
182	0xbf990843	-1.1955646
183	0xc0265ccc	-2.5994139
184	0xbf3286ee	-0.69737136
185	0xbcd8ab22	-0.02644879
186	0x3dc23970	0.094836116
187	0x3ed8e5e3	0.4236289
188	0xbfadbe54	-1.3573709
189	0xbe1f2a3d	-0.15543456
190	0xbdfadc3f	-0.1224904
191	0xbdcce74f	-0.10005056
192	0x3d973271	0.07382668
193	0x3f06d3af	0.52666754
194	0x3b749697	0.0037321204
195	0xc017e4ef	-2.373348
196	0xbf3c66dc	-0.7359445
197	0x3e8edab1	0.27901223
198	0xbf16b702	-0.58873
199	0x3e8027ac	0.25030267
200	0xbf91d866	-1.1394165
201	0xbfb2e908	-1.3977365
202	0xc06fb975	-3.7456944
203	0x3f1ed561	0.6204434
204	0xbeedaf0c	-0.46422613
205	0xc0694a32	-3.6451535
206	0x3f8096e1	1.0046045
207	0x3ed75ccc	0.42062986
208	0xbf9f0947	-1.2424706
209	0x3f8eb30c	1.1148391
210	0xbf2ed770	-0.6829748
211	0xbfa7779e	-1.3083379
212	0xbfe567f9	-1.7922355
213	0xbfcd97ca	-1.6061947
214	0x3ef1e4fb	0.4724501
215	0x3f8b5170	1.0884228
216	0xbf791298	-0.97293997
217	0xc0ede5a6	-7.4342833
218	0xbf5613f9	-0.83624226
219	0x3f3f335c	0.74687743
220	0xbe93dedf	-0.28880975
221	0xbee26c38	-0.4422319
222	0x3ed45694	0.41472304
223	0xbf45da5c	-0.77286315
224	0x3e8bcabe	0.27303118
225	0xc08a65d9	-4.3249326
226	0x3f1da40a	0.6157843
227	0xbcff97f4	-0.031200387
228	0x3d39c437	0.04535314
229	0xbf25889d	-0.6466158
230	0xbf7af20b	-0.9802558
231	0xc0c15f3c	-6.0428753
232	0x3ee65364	0.44985497
233	0x3eefcbdb	0.46835217
234	0xc0600c2b	-3.5007427
235	0xbf47fd78	-0.7812114
236	0x3fb6c3e4	1.4278531
237	0xc08e4017	-4.4453235
238	0xc087168a	-4.2215014
239	0xc031b8be	-2.7769008
240	0xc09779d1	-4.73362
241	0xc015e4fc	-2.342101
242	0xc09be832	-4.872094
243	0x3f2d2c23	0.6764547
244	0x3f474241	0.7783547
245	0xc0937577	-4.608089
246	0xbf926130	-1.1435909
247	0x3ea512e2	0.3224097
248	0xc0a86b5c	-5.2631054
249	0x400b8497	2.1799676
250	0xbfa67eb5	-1.3007418
251	0xbe2d1a1c	-0.16904491
252	0xbcd2f4e3	-0.025751537
253	0xc02ea38e	-2.7287326
254	0xbfe5e843	-1.7961506
255	0xc020570a	-2.5053124

l3.bias f4 [43]
0	0x3db57807	0.08860784
1	0xbcf7bcdf	-0.030241428
2	0xbec0940a	-0.37612945
3	0xbf672071	-0.90283877
4	0x3dd18111	0.102296956
5	0xbd842c46	-0.06453757
6	0x3e0ce34a	0.13758579
7	0xc02224b7	-2.533491
8	0xbfc7ff73	-1.5624832
9	0x3d3140de	0.043274753
10	0xbe428e09	-0.18999495
11	0xbfb18983	-1.387009
12	0xbdaaa6a6	-0.08332567
13	0x3e3563d1	0.17713858
14	0xbf0973e0	-0.53692436
15	0xbe3b7cf8	-0.1830939
16	0x3c84d91c	0.016216807
17	0x3f3e8c56	0.74432886
18	0x3e2a0ace	0.16605684
19	0xbeaf3022	-0.3421641
20	0x3c3b5dfe	0.011435984
21	0x3f89fe36	1.0780704
22	0x3f12db9c	0.5736635
23	0xbe4c5694	-0.19954902
24	0xbe6d148f	-0.23152374
25	0xbf00749a	-0.5017792
26	0xbfd1c2c9	-1.6387569
27	0xbe1d0a9c	-0.15336078
28	0xbf488876	-0.7833322
29	0x3e1cef72	0.15325716
30	0x3eeaf24f	0.45887992
31	0xbf1351c0	-0.57546616
32	0x3eed00cc	0.4628967
33	0xbe26a473	-0.1627367
34	0xbe9a94c2	-0.30191618
35	0xbd702c4e	-0.058636002
36	0x3ec2528a	0.37953597
37	0x3de802bb	0.11328646
38	0x3d5a66c9	0.05332068
39	0x3c7e7101	0.015529872
40	0x3e035abf	0.12827586
41	0xbf25c448	-0.64752626
42	0xbfeeb663	-1.864941
