careproChatBot/app/model.pth (torch, 21866 bytes, 6 tensors)

l1.weight f4 [8, 365]
0	0x3fb47c69	1.4100467
1	0x3f6c2166	0.9223846
2	0x3f320b00	0.69548035
3	0x3eff56df	0.49870965
4	0xbdbc4679	-0.09193129
5	0xbcd53488	-0.026026025
6	0x3ed323d9	0.41238287
7	0xbf84e554	-1.0382485
8	0xbbab9235	-0.005235935
9	0xbf05ac6d	-0.52216226
10	0x3f6c25c3	0.9224512
11	0x3fc90e06	1.5707405
12	0xbd0ee020	-0.03488171
13	0x3f9740e4	1.1816678
14	0xbde0882e	-0.10963474
15	0x400e87f0	2.227047
16	0x3f8a23ba	1.0792153
17	0xbdd982cd	-0.106206514
18	0x3fbdcf77	1.4828938
19	0x3f83ef11	1.0307332
20	0x3f8f55cd	1.1198059
21	0x3ff30530	1.8985958
22	0x3fab8274	1.3399186
23	0x3d7c8b2e	0.06165617
24	0x3e2bd320	0.16779757
25	0x3f687393	0.9080135
26	0xbf0fb11f	-0.5612964
27	0xbe9625e6	-0.2932579
28	0x3c98bac4	0.018643744
29	0x3ec39a16	0.38203496
30	0x40097e99	2.148352
31	0x3fa5a8d2	1.2942145
32	0x4010a732	2.2602048
33	0x3cc453ca	0.023965735
34	0xbf1afd2c	-0.6054256
35	0xbf5f802b	-0.87304944
36	0x3f4fd5ba	0.81185496
37	0x3e3bc9dc	0.18338722
38	0x3e2c262e	0.1681144
39	0xbd41886e	-0.04724925
40	0xbaf217d8	-0.0018470241
41	0x3f7fa1de	0.99856365
42	0xbe8a8aa9	-0.27058914
43	0x3f2b1cf2	0.6684104
44	0xbe33a305	-0.17542656
45	0x3f9331dd	1.1499592
46	0xbe51eab7	-0.20499693
47	0x3b6f1eb8	0.0036486816
48	0xbf0b2e41	-0.5436745
49	0x3f648d67	0.8927826
50	0x3f2b87f2	0.6700431
51	0xbfce0579	-1.609542
52	0xbb8bff0b	-0.004272347
53	0xbd3d5bb2	-0.046230026
54	0xbf0ddd33	-0.5541565
55	0x3d7246b9	0.059149478
56	0xbe058f3b	-0.1304292
57	0xbbe42e07	-0.0069634947
58	0xbdf63a17	-0.120227985
59	0x3f3d42ab	0.7392985
60	0xbea833e5	-0.32852092
61	0xbe45379e	-0.19259498
62	0xbd247d3d	-0.0401585
63	0xbe805247	-0.25062773
64	0x3fd86f1d	1.6908909
65	0xbcee747d	-0.02910828
66	0x3efec130	0.49756765
67	0x40050cfd	2.0789177
68	0x3fb71067	1.4301881
69	0xbf2429f2	-0.64126503
70	0x3f537252	0.82596314
71	0x3f4de45d	0.8042658
72	0x3fb46759	1.4094039
73	0x3e1f07c2	0.15530303
74	0x3fc3f139	1.530799
75	0x3f68feb0	0.9101362
76	0xbe7ac3ed	-0.24488802
77	0x3f0fa53b	0.56111497
78	0xbd8ad80b	-0.06779488
79	0xbf919935	-1.137488
80	0xbe53137f	-0.20612906
81	0x3ed6c712	0.41948754
82	0x4003e4e2	2.060845
83	0xbf50f6f9	-0.8162685
84	0xbe13acdc	-0.1442141
85	0xbe328c9f	-0.17436455
86	0xbda74a4e	-0.08168469
87	0x3fb5bc62	1.4198115
88	0xbf8f7d90	-1.1210194
89	0x3edc4e54	0.4302851
90	0x3ec212a5	0.3790485
91	0x3f5e64b1	0.8687239
92	0xbf573882	-0.840706
93	0xbd838f8a	-0.06423862
94	0x3d9b918b	0.075961195
95	0xbf29bd7c	-0.66304755
96	0xbfc7333d	-1.5562512
97	0x40087c57	2.132589
98	0xbff9cb6d	-1.9515206
99	0x402ed380	2.731659
100	0x3ff8853e	1.9415662
101	0xbd86210d	-0.06549273
102	0xbe4c444f	-0.19947933
103	0x3f301a77	0.6879038
104	0x3c3a9d0d	0.011389983
105	0x3f69065b	0.9102532
106	0xbe8f6613	-0.28007564
107	0x400f8e3a	2.2430558
108	0xbfb2cd85	-1.396897
109	0x3f203882	0.62586224
110	0xbf2fb045	-0.6862834
111	0x3fe19069	1.7622195
112	0x3e500403	0.2031403
113	0x3f77e4f5	0.96833736
114	0x3ffc178c	1.9694686
115	0xbedbd810	-0.4293828
116	0x3ebf9105	0.3741533
117	0x3f7b19b1	0.98086077
118	0xbe81c10a	-0.2534259
119	0xbe290768	-0.16506732
120	0x3cfc8892	0.03082684
121	0x3f993183	1.1968235
122	0xbee57c7e	-0.44821543
123	0xbe0353ff	-0.1282501
124	0xbe07c047	-0.13256942
125	0x3f14889f	0.5802097
126	0xbece53fc	-0.4029845
127	0xbec7dd2c	-0.39035928
128	0x3c9105a7	0.01770289
129	0x3dd1a7bb	0.1023707
130	0x3eafeec2	0.34361845
131	0xbe2e591e	-0.17026183
132	0xbf4bbb33	-0.7958252
133	0x3e57f1cb	0.2108833
134	0xbf27895d	-0.65443975
135	0xbf3789a8	-0.7169442
136	0x3e253b2c	0.16135854
137	0x3e03ff31	0.12890317
138	0x3f8700c5	1.054711
139	0x3f9aaeae	1.2084558
140	0x4002458b	2.0354946
141	0x3fdfdf47	1.7490014
142	0xbe921039	-0.28528002
143	0x3eb5df3b	0.35521874
144	0xbd3c1c8a	-0.045925654
145	0xbe4b6807	-0.19863902
146	0x3ebee3fa	0.37283307
147	0x3ee421ce	0.4455704
148	0xbda00590	-0.07813561
149	0x3faa77ee	1.331785
150	0xbf85424d	-1.0410858
151	0x4002465f	2.035545
152	0x400f15ec	2.235713
153	0x3fb333e2	1.4000208
154	0x3ffa9814	1.957766
155	0x40135a01	2.3023684
156	0x3cbacb5c	0.022802047
157	0x40117466	2.2727294
158	0xbe8609a0	-0.26179218
159	0xbd2b00e5	-0.0417489
160	0x3f91b0ad	1.1382042
161	0x3e0c5072	0.13702562
162	0x3e31884e	0.17337152
163	0xbf067c7c	-0.525337
164	0xbd9823f9	-0.07428736
165	0x3efb9f2b	0.49144873
166	0x400ab86f	2.167507
167	0x4006615d	2.0996926
168	0x3f9d82db	1.2305559
169	0x3e6a36ac	0.22872418
170	0xbd9359a5	-0.07194833
171	0x3ff9a66a	1.950391
172	0x3eea18b8	0.45721984
173	0x3f598c05	0.8497928
174	0x4005cd0b	2.0906398
175	0xc0076635	-2.1156132
176	0x3d49af13	0.04923923
177	0xbe7baf83	-0.24578671
178	0x3e169617	0.14705692
179	0x3ede3165	0.4339706
180	0xbcf3e258	-0.029771015
181	0x3d03a68d	0.032141257
182	0xbd238607	-0.03992274
183	0x3ecffe10	0.40623522
184	0x3d58ac8d	0.052898932
185	0x3ed5474a	0.41655952
186	0xbda33c87	-0.07970529
187	0xb8825a18	-6.215664e-05
188	0x3ee0ebe1	0.4392996
189	0x3f317d62	0.69331944
190	0xbe8c8bb9	-0.2745035
191	0x3f7ad073	0.9797432
192	0x3f1181d1	0.5683871
193	0xbd326990	-0.043557703
194	0x3ffe87ee	1.9885232
195	0x3fab88b3	1.3401092
196	0x3e3f11c7	0.18659125
197	0x3ffb0703	1.9611515
198	0xbf75fdfa	-0.9609066
199	0xbec3a259	-0.382098
200	0x3fc74f3d	1.5571057
201	0xbf579523	-0.8421194
202	0x3d9ffdbd	0.078120686
203	0xc011db8a	-2.2790246
204	0x3f7bec3d	0.98407346
205	0x3f8368e4	1.0266385
206	0x3eca0cf2	0.39463
207	0xbe83c08f	-0.25732848
208	0xbf1c5a3c	-0.61075187
209	0xbd5e4bd9	-0.054271553
210	0x3f78a66d	0.97128946
211	0xbea43d81	-0.32078174
212	0x3fbe8316	1.4883754
213	0xbea8c846	-0.32965297
214	0x3eb4b084	0.3529092
215	0x3f426332	0.7593261
216	0x3f1a012c	0.6015804
217	0x3ffba5cf	1.9659976
218	0x3f2edccb	0.68305653
219	0xbd206599	-0.03915939
220	0xbf4b00f9	-0.7929836
221	0x3fe7d4c9	1.8111812
222	0xbe5c3689	-0.21505179
223	0x400a3ec7	2.1600816
224	0x3ff98156	1.9492595
225	0xbd5f40df	-0.054505225
226	0x3ebec310	0.37258196
227	0x3fe28f4b	1.769998
228	0xbfb05e23	-1.3778728
229	0x3f19f168	0.6013398
230	0x400817ef	2.1264608
231	0x3e89d6d0	0.269217
232	0xbde19ea0	-0.110165834
233	0xbf51ecad	-0.82001764
234	0xbeb540bb	-0.35400948
235	0xbf4b6b2a	-0.79460394
236	0xbf0c5578	-0.54817915
237	0x3e694810	0.22781396
238	0xbecc16ad	-0.3986105
239	0x3ed220d8	0.41040683
240	0x3f876889	1.0578777
241	0xbdb358ed	-0.087571956
242	0x4012df21	2.2948687
243	0x3ff8d6f8	1.9440603
244	0xbf25fec3	-0.6484186
245	0xbd3fee16	-0.046857916
246	0xbf5f0a65	-0.87125236
247	0xbf804917	-1.0022305
248	0xbfd6cca8	-1.6781206
249	0x3f89294c	1.0715728
250	0x3f1450f6	0.57936037
251	0x3ef34302	0.4751206
252	0x3e0d6d4e	0.13811228
253	0x3f46f68d	0.77719957
254	0x4044cac2	3.0748754
255	0xbea7dedf	-0.32787225

l1.bias f4 [8]
0	0x3f53183a	0.8245884
1	0x3f9aff39	1.2109138
2	0x3f3ea547	0.74470943
3	0x3f5db636	0.86606157
4	0x3f3c68cd	0.73597413
5	0x3f1e37c4	0.6180384
6	0x3f8002a2	1.0000803
7	0x3f515e80	0.8178482

l2.weight f4 [8, 8]
0	0x3f9b00f0	1.2109661
1	0x3ffa0666	1.9533203
2	0xbf54a4da	-0.83064044
3	0x3ff1cd3c	1.8890758
4	0xbfa2a3da	-1.2706254
5	0x400bf295	2.186681
6	0xbf839b9a	-1.0281861
7	0x3fbbf70d	1.4684769
8	0xbf4fec6e	-0.8122014
9	0x3fcf5dec	1.6200538
10	0xbe1a96dd	-0.15096612
11	0x3f7c0e3d	0.98459226
12	0x3e316592	0.17323902
13	0xbfb6e0c9	-1.4287349
14	0x3fb1e428	1.3897753
15	0xbfd705a7	-1.67986
16	0x3f936dfb	1.1517938
17	0x3e5e4389	0.2170545
18	0x3da6e133	0.08148422
19	0x3e54b008	0.20770276
20	0xbf285d9c	-0.65767837
21	0x3f81b17d	1.013229
22	0xbe8160e5	-0.25269237
23	0x3ef88475	0.48538557
24	0x3f5ee12d	0.8706234
25	0xbf562bea	-0.8366076
26	0x402e4513	2.722966
27	0xbecc7202	-0.3993073
28	0x3fdeda54	1.7410378
29	0x3e50a2b2	0.20374563
30	0x3feb9f78	1.8408041
31	0xbe2692ac	-0.16266888
32	0xbf4c8a73	-0.79898757
33	0x3f2e7a06	0.68154943
34	0xbfac9eca	-1.3485959
35	0x3f6610c5	0.8986934
36	0x4032cc77	2.7937295
37	0x3e4a819a	0.19776002
38	0x3f218d93	0.6310665
39	0xbf6b4ede	-0.91917217
40	0xbf9cd986	-1.2253883
41	0x3f4827f0	0.7818594
42	0xbf374909	-0.7159582
43	0x3dd52410	0.10407269
44	0x3fda6153	1.7060951
45	0xbf9f5ba0	-1.2449837
46	0x3f86bcba	1.0526345
47	0x4051cbf4	3.2780733
48	0x403286ba	2.789473
49	0x40299d8e	2.6502414
50	0x3f50bcbf	0.81538004
51	0xbf71a121	-0.9438649
52	0x3dfb04ae	0.12256752
53	0xbfcc0938	-1.5940313
54	0x3f54e809	0.8316656
55	0xbf6e6dae	-0.9313611
56	0xbf10fbd3	-0.56634253
57	0xbf406060	-0.75147057
58	0x3feba633	1.8410095
59	0x4016ad86	2.354341
60	0xbf494e44	-0.7863505
61	0x3ef718ac	0.4826101
62	0x3ff79424	1.9342084
63	0xbfa93f9d	-1.3222538

l2.bias f4 [8]
0	0x3f89b34f	1.0757846
1	0x3f071766	0.5277008
2	0xbe0f0b42	-0.13969138
3	0x3e00cc86	0.1257802
4	0x3f2dfeb8	0.67966795
5	0x3e44af4b	0.19207494
6	0x3f3e2d1a	0.7428757
7	0x3f1869d5	0.59536487

l3.weight f4 [43, 8]
0	0xbf845a08	-1.0339975
1	0xbee3a8e0	-0.4446478
2	0xbee2aac9	-0.44270924
3	0x3f07bb0e	0.530198
4	0x3f8e1141	1.1099015
5	0xc04d4a4f	-3.2076604
6	0x3f853116	1.0405605
7	0xc00041c5	-2.0040143
8	0xc078f67c	-3.8900442
9	0xbfbcd704	-1.4753118
10	0xbfa8f2e6	-1.3199127
11	0x3f92c9a2	1.1467783
12	0x3e89ea89	0.2693675
13	0xbff71170	-1.9302197
14	0x3f655874	0.89588094
15	0xbe9a2b2e	-0.30111068
16	0xbf0e669c	-0.5562532
17	0x3f2f91fb	0.68582124
18	0xbf9e2722	-1.2355692
19	0xbeeb3f5f	-0.45946786
20	0x3f3a6d7b	0.72823304
21	0xbe1e8272	-0.15479448
22	0xbf56c6e6	-0.83897245
23	0x3dee0414	0.116218716
24	0xbf6046b3	-0.8760788
25	0xbf46cca0	-0.7765598
26	0x3ef63b9b	0.4809235
27	0xbef239c6	-0.47309703
28	0xbfa505bf	-1.2892379
29	0x3ed52bce	0.41634983
30	0xc09fcfcf	-4.9941173
31	0x3eb87f51	0.36034635
32	0xc0a2957c	-5.0807476
33	0xbfaa7d53	-1.3319496
34	0xc0b2d989	-5.5890546
35	0x3f02a442	0.5103189
36	0x3fa1f2c2	1.2652209
37	0x3e215f43	0.15758996
38	0x3c1e8be6	0.009676909
39	0xbfdac4f6	-1.7091358
40	0xbf7030f0	-0.9382467
41	0x3eae7103	0.34070596
42	0xc121b5e7	-10.10691
43	0x3e6ec197	0.23316036
44	0x3e69b6fe	0.22823712
45	0x3e563561	0.209188
46	0xbf824c17	-1.0179471
47	0xbdf36f09	-0.11886413
48	0xbe662a26	-0.22477016
49	0xc0567034	-3.3505983
50	0xbeebe67e	-0.4607429
51	0xbfff69fa	-1.9954216
52	0xc0b1a1d7	-5.551006
53	0x3f0d4429	0.5518213
54	0x3f822096	1.0166194
55	0xc06a4443	-3.6604164
56	0x3f691e1d	0.91061574
57	0xbf2f42ab	-0.684611
58	0x3f9f4855	1.2443949
59	0xbf850516	-1.0392177
60	0xc0ad1995	-5.409373
61	0xbe4cd362	-0.20002511
62	0xc09f2342	-4.973054
63	0xc03f0812	-2.9848676
64	0xbfe61ead	-1.7978112
65	0xbef4ac9f	-0.4778795
66	0xbfedd322	-1.8580058
67	0x3f202023	0.62549037
68	0x3fa2d2ec	1.2720618
69	0xc030eb62	-2.7643666
70	0xc007db91	-2.1227763
71	0x3ef80e2f	0.4844832
72	0x3eda532c	0.4264158
73	0xbfa0b1f7	-1.255431
74	0x3fb3cebe	1.4047468
75	0x3f4f2435	0.8091462
76	0xc082e131	-4.089989
77	0xbedbb287	-0.42909643
78	0xbf84e327	-1.0381821
79	0xc0ab5da0	-5.355179
80	0x3f10765b	0.56430596
81	0xbf0bfcfc	-0.546829
82	0x3e3666dd	0.17812677
83	0x3ea0df1a	0.31420213
84	0xbfb9d60e	-1.4518449
85	0xc002de8f	-2.044834
86	0xc0d8438e	-6.7582464
87	0x3ef627f8	0.4807737
88	0x3e1dff17	0.1542934
89	0xbeb4a89b	-0.35284886
90	0xbe28d8ed	-0.16489
91	0xbebd05dd	-0.36918536
92	0x3fdc6cbc	1.7220683
93	0xc0cc174e	-6.377845
94	0xc03576c3	-2.8353736
95	0x3e426440	0.18983555
96	0xbdef3527	-0.1168006
97	0xc0e06905	-7.01282
98	0xbe94128b	-0.28920397
99	0xbd000e9e	-0.03126394
100	0x3ec9a947	0.3938696
101	0xbe92849f	-0.28616807
102	0x3ec265d6	0.3796832
103	0xc00e6cfb	-2.2254016
104	0x3ef84f00	0.48497772
105	0x3ea9a009	0.3312991
106	0xbf347516	-0.7049116
107	0xbfed917f	-1.8560027
108	0x3e8e8142	0.2783299
109	0xbf59d163	-0.85085124
110	0xbffe9490	-1.9889088
111	0x3f0b2abd	0.5436209
112	0x3f1cce90	0.6125269
113	0xc071987b	-3.7749317
114	0x3f69d16a	0.91335166
115	0xc09c5b94	-4.886179
116	0xc02d0f81	-2.7040713
117	0x3ee8cb78	0.45467734
118	0xbf9b6f19	-1.2143279
119	0xbfa721f9	-1.3057243
120	0x3c81c0be	0.015838977
121	0xc08fb72c	-4.49111
122	0x3f152470	0.58258724
123	0x3e29922e	0.1655967
124	0xc0a4b218	-5.14674
125	0xc0cd6b09	-6.419316
126	0x3f9f49cd	1.2444397
127	0xbe03832a	-0.12843004
128	0xbe59b66a	-0.21260992
129	0x3f1b5e4e	0.6069077
130	0xbf987b23	-1.1912578
131	0xbeede878	-0.46466422
132	0xbf104314	-0.56352353
133	0xbfa6c271	-1.3028089
134	0x3f09d29d	0.53836995
135	0x3e05b9df	0.13059185
136	0xbe2c16a5	-0.16805513
137	0xc07ad788	-3.919405
138	0x3f0cbfc5	0.5498012
139	0x3f2c6d9a	0.6735474
140	0xc0a1cf59	-5.056561
141	0xbf3a2584	-0.72713494
142	0xbe902f8a	-0.2816127
143	0xbf10350b	-0.5633094
144	0x3ec510fd	0.38489524
145	0xbef247f5	-0.47320524
146	0xbe9c9b37	-0.3058717
147	0xc05d8fea	-3.4619088
148	0xbf1a5007	-0.6027836
149	0xbf398a9e	-0.7247714
150	0x3f557f8a	0.83397734
151	0xc0984472	-4.758355
152	0x3e4df96c	0.20114678
153	0xc067eecb	-3.6239498
154	0xbe4d46f4	-0.20046598
155	0xbf890c05	-1.0706793
156	0xbf40a4b8	-0.7525134
157	0x3f2d7a1b	0.67764443
158	0xc0c04be2	-6.009263
159	0xbebb6feb	-0.36608824
160	0xbedf3e2c	-0.4360212
161	0xbf61485a	-0.88001025
162	0xbf4e7159	-0.80641705
163	0x3eff6bc9	0.4988692
164	0x3e913045	0.2835714
165	0xbcfc05bb	-0.030764451
166	0xbeb90e71	-0.3614383
167	0xbfa0841b	-1.2540315
168	0x3ee74111	0.4516683
169	0xbf8ac9e6	-1.0842865
170	0x3f4c3183	0.7976305
171	0x3de42735	0.11140291
172	0xc0debe3a	-6.960721
173	0xc088cc23	-4.274919
174	0x3fb96c84	1.4486241
175	0xc0272580	-2.6116638
176	0xbe714cb7	-0.2356442
177	0xc014be19	-2.3241026
178	0xbfacb7e9	-1.3493625
179	0x3d9f2167	0.07770043
180	0x3fb3bab3	1.4041351
181	0xbf7949ba	-0.9737812
182	0xc0ea2a3d	-7.317656
183	0x3eadefef	0.33972117
184	0x3e0db05b	0.13836806
185	0xbf346d97	-0.7047972
186	0x3e22644f	0.15858577
187	0xbef91e30	-0.48655844
188	0x3eb8024d	0.35939255
189	0xbf196a30	-0.59927654
190	0xbf60a234	-0.877475
191	0x3d306ced	0.04307263
192	0xbf340349	-0.7031751
193	0x3eabc99a	0.33552247
194	0xbff14ebf	-1.8852156
195	0xbefbdeb1	-0.49193338
196	0x3e7e4532	0.24831083
197	0x3ea081c1	0.31348994
198	0x3ddfcbe1	0.10927559
199	0xbf48b105	-0.7839511
200	0xbfa2e9e2	-1.2727625
201	0xbdf53fc6	-0.119750544
202	0xbe0fb2d6	-0.14033064
203	0x3e899f19	0.26879194
204	0xc04ad5d3	-3.1693008
205	0xc0ca1425	-6.314959
206	0x3fed9529	1.8561145
207	0xbe8ed846	-0.2789938
208	0xbf01fafd	-0.507736
209	0x3db88f15	0.09011666
210	0xc08f8d22	-4.485978
211	0xc093afae	-4.6151953
212	0x3f4ecd61	0.80782133
213	0x3f53175f	0.82457536
214	0x3e3bc2a8	0.18335974
215	0xc0ad0665	-5.4070306
216	0xc07b8745	-3.9301312
217	0x3f9f2094	1.2431817
218	0xc0cd144f	-6.408729
219	0x3a70c2f5	0.00091843243
220	0x3f88ae0f	1.0678118
221	0xbf914f8e	-1.1352403
222	0x3f6577ed	0.8963612
223	0xbfb31a96	-1.3992488
224	0xbe429ba2	-0.19004682
225	0xc05b6573	-3.428067
226	0xc09237e2	-4.5693216
227	0xbf3db536	-0.7410463
228	0x3fd76c0d	1.682985
229	0x3f8d7b38	1.1053228
230	0xc0812eb3	-4.0369506
231	0xc08da4a1	-4.4263463
232	0xc0c7c464	-6.2427235
233	0x3eeccb8a	0.46249038
234	0xc0a59779	-5.1747403
235	0x3f5ed82f	0.8704862
236	0x3f2c8851	0.673955
237	0xbfcbbc5d	-1.5916859
238	0xbf62ce6a	-0.8859621
239	0x3f39d5a9	0.72591645
240	0x3f05b99d	0.5223635
241	0xbff2bd35	-1.8963991
242	0x3eafe220	0.34352207
243	0xbe37869c	-0.17922443
244	0xbf360d37	-0.71113914
245	0xc0bc2a52	-5.880166
246	0x3f51e505	0.8199008
247	0xbfc92dc7	-1.5717095
248	0xbf71c1be	-0.9443625
249	0xc08b97f8	-4.362301
250	0x3e0424c2	0.12904647
251	0x3ef3c78a	0.47613174
252	0x3f610be2	0.87908757
253	0xc0a5fcab	-5.1870933
254	0x3eb555ec	0.35417116
255	0x3da72a0c	0.08162317

l3.bias f4 [43]
0	0xbed296e0	-0.41130733
1	0xbf15d7b1	-0.58532244
2	0xbed21926	-0.41034812
3	0xbf7a16e2	-0.97691166
4	0xbe853578	-0.26017356
5	0xbeef38c7	-0.46723005
6	0x3e762652	0.24038056
7	0xbe8348be	-0.25641435
8	0xbfbdd50a	-1.4830639
9	0x3f042154	0.51613355
10	0xbe73ef04	-0.23821646
11	0xbfca39bb	-1.5798868
12	0x3e9eee6b	0.31041273
13	0x3dee96be	0.116498455
14	0xbf01894f	-0.5060014
15	0xbf9191f8	-1.1372671
16	0xbe35d9c8	-0.17758858
17	0x3f0f10da	0.5588509
18	0x3eb3f127	0.35144922
19	0xbebfa14e	-0.37427753
20	0x3f06064a	0.52353346
21	0x3e23ce42	0.1599665
22	0x3e105073	0.14093189
23	0xbdff8b8e	-0.1247779
24	0xbde61a82	-0.11235525
25	0x3c25010f	0.010071053
26	0xbe02a821	-0.12759449
27	0xbf68c523	-0.90925807
28	0x3de8c524	0.113657266
29	0xbe8a86e6	-0.27056044
30	0xbeaa05f3	-0.33207664
31	0x3e6ee4aa	0.23329416
32	0xbf275059	-0.65356976
33	0xbf741687	-0.95346874
34	0xc01038cf	-2.2534673
35	0xbe9cf2b8	-0.3065393
36	0xbedfb146	-0.43689936
37	0x3e0e7006	0.13909921
38	0x3da8da32	0.082447425
39	0xbcc7d393	-0.024392879
40	0xbea9ae1a	-0.3314064
41	0xbd64ecb4	-0.0558898
42	0x3d1d6d51	0.03843433
