careproChatBot/app/model.pth (torch, 41972 bytes, 6 tensors)

l1.weight f4 [20, 355]
00000000: 9173 96bf a798 463f 192d 5cbe 0814 703e
00000010: d677 f63e da0f b93f 4ebf 793f 82ce 14bf
00000020: fd8f 683f d5de 6d3f b2ab 41bf fd78 18bf
00000030: c477 ba3f 75ac 3d3f cd0b b33e c9a8 0d3f
00000040: 87a7 433f 912f 0dbf c1ac 8cbe eb40 fabe
00000050: 93f4 a8be ce85 eebe b8b2 f63f d718 323e
00000060: a299 13bf 4ea2 a03f db5d 06be 7dfa bb3f
00000070: 4b98 7abf ccc2 a23f 9c59 18bf f6ce 04bf
00000080: b35f 19bf cf8e 0ebf 7de6 703f b6d2 f33e
00000090: d4d5 5a3e a2f0 39be 4d84 9c3f e2c2 af3e
000000a0: ebf6 833f bcd7 bebe 49ba 7d3f 48ce df3d
000000b0: 2559 773f f1d7 57be 57bb 53be 905f ba3e
000000c0: bb02 513f 0c1c 8f3e 1546 973e 5c5a 993f
000000d0: 6c5a fcbd 7006 183f 376a 683e ff94 57be
000000e0: 94f5 aabe 45ae 253f 3729 7d3d 80fd 27bf
000000f0: 0bcf 6e3d 6ce8 363f 69a3 0cbf bd51 653f
00000100: 80b9 89b9 bf44 e6be afe8 57be b889 67be
00000110: d027 0cbf 3f9f 37bd f167 593f d0e4 51be
00000120: df75 643f 1214 6e3e 1b3d 883f 4ec4 8dbe
00000130: 7409 12bf c8f8 b5be 39cb f6be 6692 b1be
00000140: 4b5a aabe 6b4a 9f3e 54c1 29be 5a86 023f
00000150: 4b98 9ebe 0f87 17bf e819 70bf 4695 413f
00000160: 18f2 4abf 78a4 dabe d132 003f 4e27 9ebe
00000170: 2818 d43f 93d6 81bf ddee ad3d a742 bc3e
00000180: 4b65 3f3f 51df 7f3e 1d48 62be f3fd 263f
00000190: 6cd8 7e3f cda0 7bbe e17e c03f 93cc bfbe
000001a0: bbd8 1d3f a76e e23d 7afe 0fbf 4225 8fbe
000001b0: e436 a3be 338d 223e 6ec7 08bf 242e 14bf
000001c0: 47e7 7e3e 134a cebe 132e 1dbf 6033 b93d
000001d0: 0cf6 2c3f 3f34 b8be fd9f 9b3e f66f 893e
000001e0: b3d8 9bbf 5b4f c2be 2595 c4be 0984 0e3f
000001f0: 9ce6 e8be e788 013f e87f 1fbe 12e1 14bf
00000200: 15ba a63f b749 e7bd e5b7 6b3f ab92 21bf
00000210: a84d c53d 1854 a9bf 1746 ad3e 567c 09bf
00000220: 6532 2bbf 0c78 0ebc b022 2f3f 405f 243f
00000230: 8436 473f 9795 07bf 3f4c b53e df1d b8be
00000240: 9fe2 9c3e 3d77 bcbf 5d4f a0be bb61 90bd
00000250: f0df 20be 84a6 a23f 9bf7 27bf 41ff 85bf
00000260: b608 bdbe 2f6d 15bf dd97 8abe 24f9 09bf
00000270: aa06 a7be d0b3 25bf ccf0 0bbf f43d 59bf
00000280: 1bb0 ed3e 0f1b 36bf 6d8a 56bf df09 a03f
00000290: c53a fabb 9945 423f a0f6 1440 27ff dc3f
000002a0: f80a 03bf 0896 5b3e 07b3 d6be a979 a23e
000002b0: 7161 f5be af44 1dbf 32f0 8a3f 41ef b63f
000002c0: 0dc1 c13f d266 85bd cebe ee3e 8e75 cebe
000002d0: 3b26 b9bf 0e09 d73d d982 d6be 3902 a1be
000002e0: 8227 96bc d431 65be 7708 2a3f 5b6a 453f
000002f0: 1522 b93d 17fb 9d3e 9c1d f13d e57e c7bd
00000300: 9945 88be 4ce9 ea3e 2a36 8abe 0ea8 2c3f
00000310: 377e bdbe 2e0e f5be dbca 8b3e 23cb ad3f
00000320: ccaa 703e 8609 243f d910 8c3e 7a49 2dbe
00000330: b67d 9ebe 478e 163f a62d 543f 1343 4f3f
00000340: f9fd 6dbd dad9 9cbf aead 3b3f b542 323f
00000350: d1e4 1d3f e5e5 17bf 7db1 b13e 33bf f9be
00000360: 7e19 64bf e0ac 3ebf ce13 803f bdd8 e8bc
00000370: e127 a1bf 5fff c1be f24a 023f 644c 823f
00000380: cebf af3f 3630 9a3f 04db 133f 1f8b 58be
00000390: 4147 98bf cf46 b1bd af1b b63f ffa3 81be
000003a0: 0584 4dbe 53e5 0b3f 9a01 d2bf 9bb9 dbbe
000003b0: b5a0 293f e712 cfbd 143c 42be 1118 203e
000003c0: 9bf2 bc3f b231 b1be deb7 473f 6382 47bf
000003d0: 5625 e8bc affc 02bf 9f59 393f 9761 193f
000003e0: e276 a53f 0392 4a3f eb4b 11bf 5a8c 333f
000003f0: 67d0 6b3e 05f5 48bf fd10 6ebf 7e11 0abf
-1.1754018 0.7757668 -0.21501578 0.23445141 0.48138303 1.4457963 0.9755753 -0.58127606
0.9084471 0.9291814 -0.7565261 -0.59559613 1.45678 0.74091274 0.3496994 0.5533567
0.764275 -0.55150706 -0.2747555 -0.48877653 -0.32999095 -0.4658646 1.9273291 0.17392288
-0.576563 1.2549531 -0.1312174 1.4685818 -0.9788863 1.2715697 -0.59511733 -0.518783
-0.5991165 -0.5568666 0.941017 0.47621697 0.21370631 -0.181582 1.2227875 0.3432837
1.0309728 -0.37273967 0.99112374 0.10928017 0.966204 -0.21078469 -0.20676933 0.36401033
0.8164479 0.27951086 0.29545656 1.19807 -0.12321934 0.5938482 0.22696768 -0.21052931
-0.33390486 0.6471904 0.061806884 -0.65621185 0.05830292 0.714484 -0.54936844 0.8957785
-0.00026268885 -0.44974324 -0.21084855 -0.2261113 -0.5474825 -0.044829603 0.84924227 -0.20497441
0.89242357 0.23249844 1.0643648 -0.2768883 -0.57045674 -0.35541368 -0.48201922 -0.34682006
-0.33272013 0.31111464 -0.16577655 0.50986254 -0.30975565 -0.5919046 -0.9378953 0.756184
-0.79275656 -0.42703605 0.5007754 -0.30889362 1.6569872 -1.0143608 0.08492825 0.36769602
0.74763936 0.24987532 -0.22097822 0.65231246 0.99548984 -0.2457306 1.503872 -0.37460765
0.6165883 0.110562615 -0.56247675 -0.27958113 -0.31877816 0.15874176 -0.53429306 -0.57882905
0.24892913 -0.4029089 -0.6139843 0.09043002 0.6756294 -0.3597736 0.303955 0.26843232
-1.2175506 -0.37951168 -0.38395038 0.5567022 -0.4548844 0.5059952 -0.15576136 -0.5815593
1.3025538 -0.11293357 0.92077476 -0.6311442 0.096339524 -1.3228788 0.33842537 -0.53705347
-0.6687377 -0.008695614 0.68412304 0.6420784 0.7781756 -0.5296263 0.35409734 -0.3596029
0.30641648 -1.4723889 -0.3131055 -0.070498906 -0.15710425 1.2707067 -0.6561219 -1.0468522
-0.36920708 -0.58369726 -0.27068987 -0.53895783 -0.32622272 -0.647275 -0.546643 -0.8486016
0.4642342 -0.7113504 -0.8380497 1.2503012 -0.0076364004 0.7588745 2.3275528 1.7265366
-0.5118861 0.21443951 -0.41933462 0.31733444 -0.47925904 -0.6143293 1.0854552 1.4291764
1.513704 -0.06513752 0.46629947 -0.40324062 -1.4464792 0.10499774 -0.41896704 -0.31447008
-0.018329386 -0.22382289 0.66419166 0.7711541 0.09039704 0.3085563 0.11773226 -0.09741
-0.266156 0.45881116 -0.2699445 0.6744393 -0.37010357 -0.4786238 0.27303204 1.3577617
0.23502654 0.6407703 0.27356604 -0.1692256 -0.30955285 0.5881085 0.82882154 0.8096172
-0.058103535 -1.2253983 0.7331189 0.69633037 0.6167727 -0.59335166 0.34705725 -0.48778686
-0.891014 -0.74482536 1.0006044 -0.028423661 -1.2590295 -0.37890145 0.5089561 1.0179563
1.3730409 1.2045963 0.57756066 -0.2114682 -1.1896745 -0.08656084 1.4227198 -0.25320432
-0.20069893 0.54646796 -1.6406739 -0.42915043 0.66260844 -0.10111027 -0.1896823 0.1563418
1.4761537 -0.34608227 0.78014934 -0.7793333 -0.028338116 -0.51166815 0.72402376 0.59914535
1.2926905 0.79129046 -0.56756467 0.70136034 0.23028718 -0.7849887 -0.9299467 -0.5393294

l1.bias f4 [20]
00000000: e4d4 62be 0e81 1d3f 35bd d43d 6602 bfbd
00000010: c520 9cbd e20d 363f e00e 70be 3018 213f
00000020: 5be1 e1be fac4 15bf be49 2c3e 1cf5 d53c
00000030: 9fc1 0d3f b336 c9be 3de3 58bf 72a5 eebe
00000040: 5731 66bf c25b 76be 05f7 bd3e a509 99bf
-0.22151524 0.61525047 0.10387651 -0.09326629 -0.07623438 0.71114933 -0.23443174 0.6292753
-0.44117245 -0.5850369 0.16825005 0.026117854 0.5537357 -0.39299545 -0.8472174 -0.466106
-0.89919037 -0.2405844 0.37102523 -1.1956068

l2.weight f4 [20, 20]
00000000: 9792 13bf e913 8a3e 9d57 b43f 2cde 69bf
00000010: 565f 81c0 8817 bbbe b448 96bf 40c2 5cbf
00000020: f245 e63f aabe a7bf c548 debf 66d1 153e
00000030: e985 a7bf a4ce c23f c0e9 3140 92cb 80bf
00000040: 7b7d 0a3f f426 ed3c 76d9 3abf a765 9b3f
00000050: ed87 5d3f 4689 4cc0 7ef3 aa3f 57a2 0740
00000060: 819c b63e 9b20 9e3e caab 063f cf9f d53e
00000070: c9ea a93f 4d0b 4a3f d4e4 d03f 9a15 05c0
00000080: 8387 43bf 2a53 143f b54b e83e 72f7 4d3f
00000090: 8a35 b33e 07e9 9abf e20a 00c0 5089 813f
000000a0: 15e3 c8bf 7f83 80bf 4c5c e13e 0791 333f
000000b0: 67ac 0dbe 173a 57bf 671f 90bf 472b 2140
000000c0: da98 d0bf 1617 cabf d5ea 563f 058a 52bf
000000d0: 8b7f 5b3f 6201 1cbf 2295 1fbf c7b0 e93e
000000e0: 5a15 1abf 6a10 31bf ded7 4c3e 80ac 1740
000000f0: 4741 9a3f e771 8d3e 7585 d83e 1ef5 c1be
00000100: f983 2b40 3ab1 d7bf be7d 483f a2cb 7b3e
00000110: 3cb8 12bc 99dc 5f3f b170 403f 493f 9d3f
00000120: a91c 92bf 82df 3bbf 21a1 3ebe 4112 dcbf
00000130: 2ed3 50bf 08e0 f3bf 2f2c 713e f7a0 513e
00000140: b94a abbe 6fef 903c 8b46 ca3d e4e7 acbc
00000150: 4365 1fbe 40c4 2c3d 971c 89be 0677 2bbd
00000160: 13f1 1cbe 6716 bfba 987b f5bd d7f6 d5bc
00000170: 4a46 0a3a 37cf 2abe 0712 73bd 82ff 133d
00000180: 7c53 05be cf02 a5be 44fc 21be 14fd 54be
00000190: 7458 b5be 927c 31be fc6f b83f a301 98bf
000001a0: 549d 64bf 26a8 25bf c515 cb3b dd6f dbbf
000001b0: 7629 a73e 33c6 8ebf 8e59 1e3f a00d f9bf
000001c0: b549 e0bf 2085 e43f 62b2 3d40 eb76 9a3f
000001d0: 086a 30bf 32ca 3ebf a671 ddbf 2214 813f
000001e0: d1f2 22c0 2f02 58bf 03d7 0dc0 d07c 2f3f
000001f0: eae8 4e3e 3624 f13e 0582 aa3f 577b ae3c
00000200: af60 4f3e 3073 56bf b3bc 97bf 0a50 793e
00000210: cdce d93f 3ef4 a8bf 0284 8a3f 3fe5 823f
00000220: cb6b 943f 7be5 e5bf 5f39 40bf 3044 b6bf
00000230: 9801 0340 749c ad3e 2851 99bf c0b2 493f
00000240: 0d05 53bf 0926 0abf c9a1 a93e 0504 83bf
00000250: dad3 163f d4da afbc 410f d63e 8999 9fbf
00000260: 9594 173d 8a55 1040 d0de 3340 db94 f9be
00000270: 6a18 663f 40ad 5b3e 6bb1 4cbe 1d9b ab3f
00000280: 24bc 1fbf 44f2 a43e b24d 9fbf b06c 7abe
00000290: 1337 803f 625c f3be 1692 b23e 47ef 5c3e
000002a0: 7e63 3bbd 500c 20bf 8601 973e 1c3d e83e
000002b0: b343 b0be f8ec 4bbe cc24 4bbf c82f b03d
000002c0: af1f 25be d098 8f3f deb2 5dbe 1b8d dd3d
000002d0: 07ca 88be c4c9 a63e decb d0bf 3e00 f83e
000002e0: bf15 5b3f c828 ef3e a3f9 97bf 7f32 203c
000002f0: efb5 7cbf 20d9 2240 f925 be3e ff24 3cbd
00000300: e617 c03f b2cc 35bf 317a d9bd e460 313f
00000310: 8174 33bf 8988 a3bf b1a6 2f40 475a 3a3f
00000320: 04be a4bf 9a43 fabe 95e1 3d40 a17e 84bf
00000330: 4aed 593f ff9b a7bf d917 04c0 b84a e33e
00000340: 6f3a afbf 94ba 923f cdd7 c6be 58b1 f1bf
00000350: 2bec 07be c551 a03f f12a 14c0 dca2 843f
00000360: 2d38 a93f 8bcb 383f 74a2 67bf 1584 56bf
00000370: b5a0 9ebd 1e4c b23f d512 8dbf 9471 aa3e
00000380: f6a2 c83f 5c4c 3fbf 9fad 89bf fdbd bebe
00000390: 4b54 803f 6322 bfbe deb7 46c0 f6ff 9b3e
000003a0: 0deb 14bf 9389 93bf a91f 6b3f 753a 1d3f
000003b0: 70ef 0a40 f4b7 103e 73c0 eabf 43ff 103f
000003c0: 59e5 413e f6a6 e03e aace dd3f e316 04bf
000003d0: d015 30c0 6e6d 9b3f a41f 2e3f 4d33 8d3f
000003e0: c9e1 acbe 1eac 19bf 034e ec3e 5db8 4f3e
000003f0: 5a1b 09c0 ef8d 93bf d2b1 18bf e3a7 c43e
-0.57645553 0.26968315 1.4089237 -0.9135463 -4.0428877 -0.3654139 -1.1740937 -0.862339
1.7990096 -1.3105061 -1.7365957 0.1463066 -1.3087741 1.5219312 2.779892 -1.0062125
0.5409772 0.028949238 -0.7298807 1.2140397 0.8653553 -3.1958785 1.3355558 2.1192834
0.35666278 0.3088425 0.5260588 0.41723487 1.3274776 0.78923494 1.6319833 -2.0794435
-0.7637865 0.579394 0.4537026 0.80455697 0.35001785 -1.2102364 -2.0006642 1.012003
-1.56943 -1.004013 0.4401573 0.7014317 -0.13835298 -0.84073013 -1.1259583 2.5182664
-1.6296647 -1.5788295 0.83952075 -0.8224185 0.8574149 -0.6093961 -0.62336934 0.45642683
-0.6018883 -0.6916567 0.20004222 2.3699036 1.2051171 0.27625963 0.4228932 -0.37882322
2.67993 -1.685096 0.7831687 0.24589399 -0.008955058 0.8744598 0.75171953 1.2284938
-1.1414996 -0.7338792 -0.18616153 -1.7193071 -0.81572235 -1.9052744 0.23552011 0.2047156
-0.33455446 0.017692296 0.09876736 -0.021106668 -0.15565972 0.042179346 -0.26779625 -0.041861556
-0.15326338 -0.001457882 -0.11986464 -0.026118679 0.0005274756 -0.16680609 -0.059343364 0.036132343
-0.13020128 -0.32228705 -0.15818888 -0.20799667 -0.35419047 -0.17332676 1.4409175 -1.18755
-0.89302564 -0.647097 0.0061976635 -1.7143513 0.3264882 -1.1154236 0.618554 -1.9457283
-1.7522494 1.7853127 2.9640126 1.2067541 -0.6891179 -0.74527276 -1.7300308 1.0084269
-2.5460703 -0.8437833 -2.2162483 0.68549824 0.20206037 0.4709794 1.3320929 0.021299047
0.20251726 -0.8376951 -1.1854461 0.24346939 1.7016236 -1.3199537 1.0821536 1.022621
1.1595396 -1.7960657 -0.7508754 -1.4239559 2.0469723 0.33908427 -1.1977892 0.78788376
-0.8242958 -0.5396429 0.33131245 -1.0235602 0.5891701 -0.02146665 0.41808513 -1.246873
0.037006933 2.255221 2.8104744 -0.4874638 0.89881 0.21452808 -0.19989555 1.3406712
-0.62396455 0.32216084 -1.2445586 -0.24455523 1.0016807 -0.4753142 0.3487708 0.21575652
-0.04574918 -0.6251879 0.2949335 0.45359123 -0.3442665 -0.19914615 -0.7935302 0.086028636
-0.16125368 1.121851 -0.21650264 0.10817929 -0.26716635 0.3257581 -1.6312215 0.48437685
0.85580057 0.467108 -1.1873058 0.009777664 -0.9871511 2.5445023 0.37138346 -0.04593372
1.5007293 -0.71015465 -0.10619009 0.6928847 -0.70099646 -1.2776042 2.744549 0.72794
-1.2870488 -0.488797 2.9668934 -1.0351144 0.851277 -1.3094481 -2.0639555 0.44392943
-1.3689708 1.1463189 -0.38836518 -1.8882246 -0.13273685 1.2524954 -2.315121 1.0362201
1.3220268 0.7218558 -0.9048226 -0.8379529 -0.07745496 1.3929479 -1.1021372 0.33289778
1.5674732 -0.7472589 -1.075611 -0.37254325 1.0025724 -0.37330922 -3.1049724 0.3046872
-0.5817116 -1.1526359 0.91845185 0.61417323 2.170864 0.14132673 -1.8339981 0.566395
0.18935145 0.4387738 1.7328694 -0.5159742 -2.7513313 1.214277 0.6801703 1.1031281
-0.3376601 -0.60028255 0.46153268 0.20285173 -2.1422944 -1.152769 -0.5964633 0.38409337

l2.bias f4 [20]
00000000: 9582 c0bf 0e44 46bf 8220 6cbf a3f2 88bf
00000010: ac71 eabe c8e2 dc3e f129 99bf e743 29bf
00000020: a955 56bf 428c 44bf f041 1e3e 4a13 b9be
00000030: c2de a0bf 738b 173f b8b0 c9be 5877 4abf
00000040: 4916 6cbf bbd7 113f f353 0bbe c345 a8bf
-1.503985 -0.77447593 -0.92237103 -1.0699047 -0.4578985 0.4314177 -1.1965925 -0.66119236
-0.8372446 -0.76776516 0.1545484 -0.3614753 -1.256798 0.5919716 -0.39392638 -0.79088354
-0.92221504 0.56969804 -0.13606243 -1.314629

l3.weight f4 [43, 20]
00000000: 9b62 02c1 8945 efbb 8fc7 98c0 54b6 89c0
00000010: 9cf8 fbbe fed1 e5bd 48e4 cdbf 4b4f 49bf
00000020: 1f0f fa3b 833d 03c0 02df 773f bfce 30c0
00000030: 982c 72c0 45b6 37c1 0ab5 b5be 65ec b83e
00000040: 0936 893f 8c21 ff3e 3a25 ed3b 92df dec0
00000050: b18f 87bf c421 5ec0 e3dd 7cbf cffc e1bf
00000060: 6d9c b5be 584c 11bf dba0 38c0 b808 73c0
00000070: 5d12 81be 65fa 6a3e 758a a9bd d943 ac3f
00000080: 20cc 5cc1 ff61 a3c1 fac0 8bbe d6fd 003c
00000090: e947 04c0 55f7 30bf ba15 853f c0c6 c2c0
000000a0: a0f3 f13d ee44 6f3e 0c96 3b3d aac2 18bf
000000b0: f6c7 02be 7eb3 72c0 c3aa 5e3d 404e 633e
000000c0: c470 24be ab64 c7c0 674c 04bf ff32 a8be
000000d0: 7ab7 903e e986 a73e 6291 ed3c f9d6 823d
000000e0: de07 53c0 c344 8ec0 063c c6c0 de7c 403f
000000f0: 3517 56c1 2a8f afbf a1ee 51c0 5e60 3d3f
00000100: ada7 14be ae48 4dc1 438b 33c1 32bb 26c0
00000110: d920 cabf 1113 633f a5d4 68bf 671a 89c0
00000120: 60e4 8ac0 a6d7 fdbf 9d00 1c3e e1e9 2f3f
00000130: aa72 78bf 2ed2 10c1 dcd7 8bc0 01dd 7b3f
00000140: 0cb5 0bc1 f1fc 8fbf 3127 94c0 b53a 893e
00000150: f831 cabe bef3 2a3f e578 25c1 e59b fabf
00000160: 05ad 8bbf b2ba f5bf d673 ab3f 8c3d b23c
00000170: 8add a5c0 c391 81c1 af0e bcbe b820 8b3e
00000180: 4715 b43e f43b 23c1 f5c9 b6be 0967 84bf
00000190: 289e 15bf 3c92 713e 0004 53c1 f645 c5bf
000001a0: e764 f3be c361 fac0 e616 0a40 0303 353e
000001b0: 5757 eebf 4e9e 7bc1 ef72 83c1 417b 64bf
000001c0: 6fc5 063e daf7 8f3e 6177 573b ee85 14bf
000001d0: c539 53c0 38f3 98be da67 d6c1 f4d4 463f
000001e0: 752e 51bf 2865 8ebf 0c97 543f 4e13 82c0
000001f0: 3d5f 93be 0bf1 25c0 56b8 9cc1 fc63 a43f
00000200: afae 7bbf fea8 46bf 119f 1dc1 eab8 60c1
00000210: 9a9a 56bf ffa3 6a3f 98c9 83be 65f2 12bf
00000220: 7991 23c0 dea8 58c1 8181 a4c0 f0a9 92c1
00000230: 3c20 1ec0 8e1d bec0 db8e cac0 afb3 d03e
00000240: 9b55 a0be cfc5 f1bf 1f06 b6c1 06f5 943f
00000250: 6ade a0bf 1f50 463f db72 1cc0 2b1c 94c0
00000260: 73f5 76c0 53de 063f 65da 0d3c 7d64 933e
00000270: 3410 79c0 27c2 2cc1 3fb4 9dc0 649b 55c0
00000280: 4574 ab3c b8e5 02be 0649 68bf 9bbe 74c0
00000290: c31c 09be 86e5 d83e 1232 9b3d bf9d 313d
000002a0: 5115 9dbf d4c1 9bbf f750 e2bf 0026 2bbd
000002b0: 0fe4 83c0 e784 19c1 1aaf c63d c079 cebe
000002c0: a7bc 27c0 8db9 87bd 2333 4abc f11f 54c1
000002d0: beff e4c0 e854 53c0 c7ad a2bf 69ed 18c1
000002e0: 39d1 2fbf 8f35 02c1 34b0 653f acb7 febf
000002f0: 1207 01bf 6851 3a3f 9005 963d 85f1 9fc0
00000300: 9684 3d3f f3dc 39c1 4726 0a3d 00c2 ae3e
00000310: 76a9 debf 7ebb d13e b9d0 b33e 85c6 98c1
00000320: 5c7b e53e f267 70c0 23e4 a3bf 0f06 e8c0
00000330: d81b 663e 7abb 263f 710c f43e 3957 a0c0
00000340: d69f f5be da12 d4bf 628f ee3e c5d3 963f
00000350: 2a33 503f a538 47c1 9221 82bd 6f40 0a3f
00000360: e446 c3c0 d6bc a13f ea02 a6c0 2b86 553d
00000370: 44ee 07c1 ddc1 febf 349e 3fbf b791 83c0
00000380: fef6 45be 1756 41c0 c5a5 6e3f c4d4 2dc0
00000390: c030 9fbe 0743 b8bf 1b41 813f 5655 af3c
000003a0: 80b6 6cc1 a22d 6ec1 6def af3d 0d57 e23b
000003b0: a3b6 4ec0 0e95 673f 473b 3a3f 4cf4 3cc0
000003c0: cace 13c1 50bb a1c0 5437 a0be 1ff0 813e
000003d0: 3d72 9ebe 5011 cfc1 c123 a0bd dba6 843e
000003e0: 9e48 1e3f 044f 6abe 72ed 57c1 c4f2 02c0
000003f0: 91a0 fdc0 239d 893e de8a b1bd 447e 2abe
-8.149074 -0.0073019904 -4.77436 -4.303507 -0.4921311 -0.112216935 -1.6085291 -0.78636616
0.007631197 -2.0506294 0.9682466 -2.7626188 -3.7839718 -11.481999 -0.35489684 0.36117855
1.0719615 0.49830282 0.007237104 -6.9647913 -1.0590726 -3.470811 -0.9877607 -1.7655276
-0.35470906 -0.56757116 -2.8848178 -3.7974072 -0.25209323 0.2294708 -0.08278362 1.3458205
-13.799835 -20.42285 -0.27295667 0.007873019 -2.066889 -0.691274 1.0397255 -6.0867615
0.11814046 0.23366138 0.045797393 -0.59672034 -0.12771592 -3.7922053 0.05436207 0.22197819
-0.16058642 -6.2310386 -0.5167908 -0.32851407 0.28264982 0.32720116 0.028999988 0.06388659
-3.2973552 -4.445894 -6.194827 0.7519053 -13.380666 -1.3715565 -3.2801898 0.7397517
-0.14517088 -12.830244 -11.221499 -2.6051755 -1.5791274 0.8870097 -0.9094947 -4.284473
-4.340378 -1.9831436 0.15234609 0.68716246 -0.97049963 -9.051313 -4.3701 0.983841
-8.731701 -1.1249067 -4.629784 0.26802602 -0.39491248 0.6677817 -10.342015 -1.9578825
-1.0912176 -1.91976 1.3394725 0.021757863 -5.1832933 -16.196173 -0.36729953 0.271734
0.35172483 -10.202137 -0.35700956 -1.0343944 -0.5844445 0.2359094 -13.188477 -1.5411975
-0.4753792 -7.824434 2.1576476 0.1767693 -1.8620404 -15.726149 -16.43112 -0.8925057
0.13161252 0.28118783 0.0032877552 -0.5801686 -3.300401 -0.2987306 -26.800709 0.7766869
-0.8171151 -1.112462 0.8304298 -4.0648565 -0.287836 -2.592837 -19.590008 1.2843013
-0.9831342 -0.7760161 -9.851335 -14.045145 -0.83829653 0.9165649 -0.2573974 -0.57401115
-2.555754 -13.541227 -5.1408086 -18.332977 -2.4707174 -5.9411077 -6.3299384 0.40762088
-0.31315312 -1.8888491 -22.752989 1.1637275 -1.2567875 0.77466005 -2.4445102 -4.6284385
-3.858731 0.5268299 0.008658026 0.28787604 -3.891614 -10.7974 -4.9282527 -3.3376093
0.020929465 -0.12782943 -0.90736425 -3.8241336 -0.13389878 0.42362612 0.075779095 0.04336333
-1.227213 -1.2168527 -1.7680959 -0.041784286 -4.121589 -9.594947 0.09701367 -0.40327263
-2.6208894 -0.06627188 -0.0123412935 -13.257798 -7.1562185 -3.3020573 -1.2709283 -9.557961
-0.68678623 -8.138076 0.8972199 -1.9899802 -0.50401413 0.72780466 0.0732528 -4.9982324
0.74030435 -11.616443 0.03372791 0.34132385 -1.7395465 0.40963358 0.3512018 -19.096933
0.44820678 -3.7563443 -1.2803997 -7.2507396 0.22471559 0.65129817 0.47665742 -5.0106473
-0.47973508 -1.6568253 0.46593767 1.1783377 0.8132807 -12.451329 -0.06354059 0.5400457
-6.1024036 1.2635753 -5.1878557 0.052129906 -8.49567 -1.9902912 -0.74850774 -4.1115375
-0.19332501 -3.0208795 0.93221694 -2.7161112 -0.3109188 -1.4395455 1.0097994 0.021402996
-14.794556 -14.886141 0.08590589 0.00690735 -3.2298973 0.90461814 0.727467 -2.9524107
-9.237986 -5.0541153 -0.31292212 0.2537851 -0.30946532 -25.883453 -0.078193195 0.2590855
0.61829555 -0.22881705 -13.49547 -2.0460672 -7.9258504 0.26877698 -0.08669065 -0.16649729

l3.bias f4 [43]
00000000: 00b0 36c0 5bbf 14c0 544f 6dbc 933f 86c0
00000010: 92cf 44bf 3656 8ebd 049a b4c0 4c34 36c0
00000020: f88c 9dc0 7157 afc0 43c6 2f3f e92b 34c0
00000030: 9d25 ae3e 8595 d53d fc7d c5c0 d77e 2ec0
00000040: 0811 20be 37cd 86c0 07b0 6bbf 73bb 16c0
00000050: 662f cc3d db78 a0c0 488b 98c0 6d2d 8f3e
00000060: 179a 06be e819 b3c0 b859 b4c0 6372 3fc0
00000070: ab7f 6fc0 9695 1fc0 38ce a0c0 470c 09c0
00000080: cf26 18c0 f5b4 4bc0 11f6 b0c0 d40f 7fc0
00000090: 382f 4dc0 6025 d2bf 2d66 733f 4c68 023f
000000a0: 9e7a f83e f6a2 89c0 ff06 55c0
-2.8544922 -2.3241794 -0.014484245 -4.1952605 -0.7687923 -0.06950037 -5.6438007 -2.846942
-4.923458 -5.479424 0.686619 -2.81518 0.34013072 0.10428909 -6.171629 -2.7264917
-0.15631497 -4.2125506 -0.9206547 -2.355191 0.09969978 -5.014753 -4.767002 0.27964345
-0.13144718 -5.5969124 -5.635952 -2.9913566 -3.7421672 -2.493505 -5.025173 -2.1413743
-2.3773687 -3.1829197 -5.5300374 -3.985341 -3.206007 -1.6417656 0.9507778 0.50940394
0.4853105 -4.3011427 -3.328552
